…
WARNING:tensorflow:From /home/bureaux/miniconda3/envs/Bert-base/lib/python3.6/site-packages/keras/backend/tensorflow_backend.py:2974: add_dispatch_support.<locals>.wrapper (from tensorflow.python.ops.array_ops) is deprecated and will be removed in a future version.
Instructions for updating:
Use tf.where in 2.0, which has the same broadcast rule as np.where
__________________________________________________________________________________________________
Layer (type)                    Output Shape         Param #     Connected to
==================================================================================================
Input-Token (InputLayer)        (None, 150)          0
__________________________________________________________________________________________________
Input-Segment (InputLayer)      (None, 150)          0
__________________________________________________________________________________________________
Embedding-Token (TokenEmbedding [(None, 150, 768), ( 16226304    Input-Token[0][0]
__________________________________________________________________________________________________
Embedding-Segment (Embedding)   (None, 150, 768)     1536        Input-Segment[0][0]
__________________________________________________________________________________________________
Embedding-Token-Segment (Add)   (None, 150, 768)     0           Embedding-Token[0][0]
                                                                 Embedding-Segment[0][0]
__________________________________________________________________________________________________
Embedding-Position (PositionEmb (None, 150, 768)     115200      Embedding-Token-Segment[0][0]
__________________________________________________________________________________________________
Embedding-Dropout (Dropout)     (None, 150, 768)     0           Embedding-Position[0][0]
__________________________________________________________________________________________________
Embedding-Norm (LayerNormalizat (None, 150, 768)     1536        Embedding-Dropout[0][0]
__________________________________________________________________________________________________
Encoder-1-MultiHeadSelfAttentio (None, 150, 768)     2362368     Embedding-Norm[0][0]
__________________________________________________________________________________________________
Encoder-1-MultiHeadSelfAttentio (None, 150, 768)     0           Encoder-1-MultiHeadSelfAttention[
__________________________________________________________________________________________________
Encoder-1-MultiHeadSelfAttentio (None, 150, 768)     0           Embedding-Norm[0][0]
                                                                 Encoder-1-MultiHeadSelfAttention-
__________________________________________________________________________________________________
Encoder-1-MultiHeadSelfAttentio (None, 150, 768)     1536        Encoder-1-MultiHeadSelfAttention-
__________________________________________________________________________________________________
Encoder-1-FeedForward (FeedForw (None, 150, 768)     4722432     Encoder-1-MultiHeadSelfAttention-
__________________________________________________________________________________________________
Encoder-1-FeedForward-Dropout ( (None, 150, 768)     0           Encoder-1-FeedForward[0][0]
__________________________________________________________________________________________________
Encoder-1-FeedForward-Add (Add) (None, 150, 768)     0           Encoder-1-MultiHeadSelfAttention-
                                                                 Encoder-1-FeedForward-Dropout[0][
__________________________________________________________________________________________________
Encoder-1-FeedForward-Norm (Lay (None, 150, 768)     1536        Encoder-1-FeedForward-Add[0][0]
__________________________________________________________________________________________________
Encoder-2-MultiHeadSelfAttentio (None, 150, 768)     2362368     Encoder-1-FeedForward-Norm[0][0]
__________________________________________________________________________________________________
Encoder-2-MultiHeadSelfAttentio (None, 150, 768)     0           Encoder-2-MultiHeadSelfAttention[
__________________________________________________________________________________________________
Encoder-2-MultiHeadSelfAttentio (None, 150, 768)     0           Encoder-1-FeedForward-Norm[0][0]
                                                                 Encoder-2-MultiHeadSelfAttention-
__________________________________________________________________________________________________
Encoder-2-MultiHeadSelfAttentio (None, 150, 768)     1536        Encoder-2-MultiHeadSelfAttention-
__________________________________________________________________________________________________
Encoder-2-FeedForward (FeedForw (None, 150, 768)     4722432     Encoder-2-MultiHeadSelfAttention-
__________________________________________________________________________________________________
Encoder-2-FeedForward-Dropout ( (None, 150, 768)     0           Encoder-2-FeedForward[0][0]
__________________________________________________________________________________________________
Encoder-2-FeedForward-Add (Add) (None, 150, 768)     0           Encoder-2-MultiHeadSelfAttention-
                                                                 Encoder-2-FeedForward-Dropout[0][
__________________________________________________________________________________________________
Encoder-2-FeedForward-Norm (Lay (None, 150, 768)     1536        Encoder-2-FeedForward-Add[0][0]
__________________________________________________________________________________________________
Encoder-3-MultiHeadSelfAttentio (None, 150, 768)     2362368     Encoder-2-FeedForward-Norm[0][0]
__________________________________________________________________________________________________
Encoder-3-MultiHeadSelfAttentio (None, 150, 768)     0           Encoder-3-MultiHeadSelfAttention[
__________________________________________________________________________________________________
Encoder-3-MultiHeadSelfAttentio (None, 150, 768)     0           Encoder-2-FeedForward-Norm[0][0]
                                                                 Encoder-3-MultiHeadSelfAttention-
__________________________________________________________________________________________________
Encoder-3-MultiHeadSelfAttentio (None, 150, 768)     1536        Encoder-3-MultiHeadSelfAttention-
__________________________________________________________________________________________________
Encoder-3-FeedForward (FeedForw (None, 150, 768)     4722432     Encoder-3-MultiHeadSelfAttention-
__________________________________________________________________________________________________
Encoder-3-FeedForward-Dropout ( (None, 150, 768)     0           Encoder-3-FeedForward[0][0]
__________________________________________________________________________________________________
Encoder-3-FeedForward-Add (Add) (None, 150, 768)     0           Encoder-3-MultiHeadSelfAttention-
                                                                 Encoder-3-FeedForward-Dropout[0][
__________________________________________________________________________________________________
Encoder-3-FeedForward-Norm (Lay (None, 150, 768)     1536        Encoder-3-FeedForward-Add[0][0]
__________________________________________________________________________________________________
Encoder-4-MultiHeadSelfAttentio (None, 150, 768)     2362368     Encoder-3-FeedForward-Norm[0][0]
__________________________________________________________________________________________________
Encoder-4-MultiHeadSelfAttentio (None, 150, 768)     0           Encoder-4-MultiHeadSelfAttention[
__________________________________________________________________________________________________
Encoder-4-MultiHeadSelfAttentio (None, 150, 768)     0           Encoder-3-FeedForward-Norm[0][0]
                                                                 Encoder-4-MultiHeadSelfAttention-
__________________________________________________________________________________________________
Encoder-4-MultiHeadSelfAttentio (None, 150, 768)     1536        Encoder-4-MultiHeadSelfAttention-
__________________________________________________________________________________________________
Encoder-4-FeedForward (FeedForw (None, 150, 768)     4722432     Encoder-4-MultiHeadSelfAttention-
__________________________________________________________________________________________________
Encoder-4-FeedForward-Dropout ( (None, 150, 768)     0           Encoder-4-FeedForward[0][0]
__________________________________________________________________________________________________
Encoder-4-FeedForward-Add (Add) (None, 150, 768)     0           Encoder-4-MultiHeadSelfAttention-
                                                                 Encoder-4-FeedForward-Dropout[0][
__________________________________________________________________________________________________
Encoder-4-FeedForward-Norm (Lay (None, 150, 768)     1536        Encoder-4-FeedForward-Add[0][0]
__________________________________________________________________________________________________
Encoder-5-MultiHeadSelfAttentio (None, 150, 768)     2362368     Encoder-4-FeedForward-Norm[0][0]
__________________________________________________________________________________________________
Encoder-5-MultiHeadSelfAttentio (None, 150, 768)     0           Encoder-5-MultiHeadSelfAttention[
__________________________________________________________________________________________________
Encoder-5-MultiHeadSelfAttentio (None, 150, 768)     0           Encoder-4-FeedForward-Norm[0][0]
                                                                 Encoder-5-MultiHeadSelfAttention-
__________________________________________________________________________________________________
Encoder-5-MultiHeadSelfAttentio (None, 150, 768)     1536        Encoder-5-MultiHeadSelfAttention-
__________________________________________________________________________________________________
Encoder-5-FeedForward (FeedForw (None, 150, 768)     4722432     Encoder-5-MultiHeadSelfAttention-
__________________________________________________________________________________________________
Encoder-5-FeedForward-Dropout ( (None, 150, 768)     0           Encoder-5-FeedForward[0][0]
__________________________________________________________________________________________________
Encoder-5-FeedForward-Add (Add) (None, 150, 768)     0           Encoder-5-MultiHeadSelfAttention-
                                                                 Encoder-5-FeedForward-Dropout[0][
__________________________________________________________________________________________________
Encoder-5-FeedForward-Norm (Lay (None, 150, 768)     1536        Encoder-5-FeedForward-Add[0][0]
__________________________________________________________________________________________________
Encoder-6-MultiHeadSelfAttentio (None, 150, 768)     2362368     Encoder-5-FeedForward-Norm[0][0]
__________________________________________________________________________________________________
Encoder-6-MultiHeadSelfAttentio (None, 150, 768)     0           Encoder-6-MultiHeadSelfAttention[
__________________________________________________________________________________________________
Encoder-6-MultiHeadSelfAttentio (None, 150, 768)     0           Encoder-5-FeedForward-Norm[0][0]
                                                                 Encoder-6-MultiHeadSelfAttention-
__________________________________________________________________________________________________
Encoder-6-MultiHeadSelfAttentio (None, 150, 768)     1536        Encoder-6-MultiHeadSelfAttention-
__________________________________________________________________________________________________
Encoder-6-FeedForward (FeedForw (None, 150, 768)     4722432     Encoder-6-MultiHeadSelfAttention-
__________________________________________________________________________________________________
Encoder-6-FeedForward-Dropout ( (None, 150, 768)     0           Encoder-6-FeedForward[0][0]
__________________________________________________________________________________________________
Encoder-6-FeedForward-Add (Add) (None, 150, 768)     0           Encoder-6-MultiHeadSelfAttention-
                                                                 Encoder-6-FeedForward-Dropout[0][
__________________________________________________________________________________________________
Encoder-6-FeedForward-Norm (Lay (None, 150, 768)     1536        Encoder-6-FeedForward-Add[0][0]
__________________________________________________________________________________________________
Encoder-7-MultiHeadSelfAttentio (None, 150, 768)     2362368     Encoder-6-FeedForward-Norm[0][0]
__________________________________________________________________________________________________
Encoder-7-MultiHeadSelfAttentio (None, 150, 768)     0           Encoder-7-MultiHeadSelfAttention[
__________________________________________________________________________________________________
Encoder-7-MultiHeadSelfAttentio (None, 150, 768)     0           Encoder-6-FeedForward-Norm[0][0]
                                                                 Encoder-7-MultiHeadSelfAttention-
__________________________________________________________________________________________________
Encoder-7-MultiHeadSelfAttentio (None, 150, 768)     1536        Encoder-7-MultiHeadSelfAttention-
__________________________________________________________________________________________________
Encoder-7-FeedForward (FeedForw (None, 150, 768)     4722432     Encoder-7-MultiHeadSelfAttention-
__________________________________________________________________________________________________
Encoder-7-FeedForward-Dropout ( (None, 150, 768)     0           Encoder-7-FeedForward[0][0]
__________________________________________________________________________________________________
Encoder-7-FeedForward-Add (Add) (None, 150, 768)     0           Encoder-7-MultiHeadSelfAttention-
                                                                 Encoder-7-FeedForward-Dropout[0][
__________________________________________________________________________________________________
Encoder-7-FeedForward-Norm (Lay (None, 150, 768)     1536        Encoder-7-FeedForward-Add[0][0]
__________________________________________________________________________________________________
Encoder-8-MultiHeadSelfAttentio (None, 150, 768)     2362368     Encoder-7-FeedForward-Norm[0][0]
__________________________________________________________________________________________________
Encoder-8-MultiHeadSelfAttentio (None, 150, 768)     0           Encoder-8-MultiHeadSelfAttention[
__________________________________________________________________________________________________
Encoder-8-MultiHeadSelfAttentio (None, 150, 768)     0           Encoder-7-FeedForward-Norm[0][0]
                                                                 Encoder-8-MultiHeadSelfAttention-
__________________________________________________________________________________________________
Encoder-8-MultiHeadSelfAttentio (None, 150, 768)     1536        Encoder-8-MultiHeadSelfAttention-
__________________________________________________________________________________________________
Encoder-8-FeedForward (FeedForw (None, 150, 768)     4722432     Encoder-8-MultiHeadSelfAttention-
__________________________________________________________________________________________________
Encoder-8-FeedForward-Dropout ( (None, 150, 768)     0           Encoder-8-FeedForward[0][0]
__________________________________________________________________________________________________
Encoder-8-FeedForward-Add (Add) (None, 150, 768)     0           Encoder-8-MultiHeadSelfAttention-
                                                                 Encoder-8-FeedForward-Dropout[0][
__________________________________________________________________________________________________
Encoder-8-FeedForward-Norm (Lay (None, 150, 768)     1536        Encoder-8-FeedForward-Add[0][0]
__________________________________________________________________________________________________
Encoder-9-MultiHeadSelfAttentio (None, 150, 768)     2362368     Encoder-8-FeedForward-Norm[0][0]
__________________________________________________________________________________________________
Encoder-9-MultiHeadSelfAttentio (None, 150, 768)     0           Encoder-9-MultiHeadSelfAttention[
__________________________________________________________________________________________________
Encoder-9-MultiHeadSelfAttentio (None, 150, 768)     0           Encoder-8-FeedForward-Norm[0][0]
                                                                 Encoder-9-MultiHeadSelfAttention-
__________________________________________________________________________________________________
Encoder-9-MultiHeadSelfAttentio (None, 150, 768)     1536        Encoder-9-MultiHeadSelfAttention-
__________________________________________________________________________________________________
Encoder-9-FeedForward (FeedForw (None, 150, 768)     4722432     Encoder-9-MultiHeadSelfAttention-
__________________________________________________________________________________________________
Encoder-9-FeedForward-Dropout ( (None, 150, 768)     0           Encoder-9-FeedForward[0][0]
__________________________________________________________________________________________________
Encoder-9-FeedForward-Add (Add) (None, 150, 768)     0           Encoder-9-MultiHeadSelfAttention-
                                                                 Encoder-9-FeedForward-Dropout[0][
__________________________________________________________________________________________________
Encoder-9-FeedForward-Norm (Lay (None, 150, 768)     1536        Encoder-9-FeedForward-Add[0][0]
__________________________________________________________________________________________________
Encoder-10-MultiHeadSelfAttenti (None, 150, 768)     2362368     Encoder-9-FeedForward-Norm[0][0]
__________________________________________________________________________________________________
Encoder-10-MultiHeadSelfAttenti (None, 150, 768)     0           Encoder-10-MultiHeadSelfAttention
__________________________________________________________________________________________________
Encoder-10-MultiHeadSelfAttenti (None, 150, 768)     0           Encoder-9-FeedForward-Norm[0][0]
                                                                 Encoder-10-MultiHeadSelfAttention
__________________________________________________________________________________________________
Encoder-10-MultiHeadSelfAttenti (None, 150, 768)     1536        Encoder-10-MultiHeadSelfAttention
__________________________________________________________________________________________________
Encoder-10-FeedForward (FeedFor (None, 150, 768)     4722432     Encoder-10-MultiHeadSelfAttention
__________________________________________________________________________________________________
Encoder-10-FeedForward-Dropout  (None, 150, 768)     0           Encoder-10-FeedForward[0][0]
__________________________________________________________________________________________________
Encoder-10-FeedForward-Add (Add (None, 150, 768)     0           Encoder-10-MultiHeadSelfAttention
                                                                 Encoder-10-FeedForward-Dropout[0]
__________________________________________________________________________________________________
Encoder-10-FeedForward-Norm (La (None, 150, 768)     1536        Encoder-10-FeedForward-Add[0][0]
__________________________________________________________________________________________________
Encoder-11-MultiHeadSelfAttenti (None, 150, 768)     2362368     Encoder-10-FeedForward-Norm[0][0]
__________________________________________________________________________________________________
Encoder-11-MultiHeadSelfAttenti (None, 150, 768)     0           Encoder-11-MultiHeadSelfAttention
__________________________________________________________________________________________________
Encoder-11-MultiHeadSelfAttenti (None, 150, 768)     0           Encoder-10-FeedForward-Norm[0][0]
                                                                 Encoder-11-MultiHeadSelfAttention
__________________________________________________________________________________________________
Encoder-11-MultiHeadSelfAttenti (None, 150, 768)     1536        Encoder-11-MultiHeadSelfAttention
__________________________________________________________________________________________________
Encoder-11-FeedForward (FeedFor (None, 150, 768)     4722432     Encoder-11-MultiHeadSelfAttention
__________________________________________________________________________________________________
Encoder-11-FeedForward-Dropout  (None, 150, 768)     0           Encoder-11-FeedForward[0][0]
__________________________________________________________________________________________________
Encoder-11-FeedForward-Add (Add (None, 150, 768)     0           Encoder-11-MultiHeadSelfAttention
                                                                 Encoder-11-FeedForward-Dropout[0]
__________________________________________________________________________________________________
Encoder-11-FeedForward-Norm (La (None, 150, 768)     1536        Encoder-11-FeedForward-Add[0][0]
__________________________________________________________________________________________________
Encoder-12-MultiHeadSelfAttenti (None, 150, 768)     2362368     Encoder-11-FeedForward-Norm[0][0]
__________________________________________________________________________________________________
Encoder-12-MultiHeadSelfAttenti (None, 150, 768)     0           Encoder-12-MultiHeadSelfAttention
__________________________________________________________________________________________________
Encoder-12-MultiHeadSelfAttenti (None, 150, 768)     0           Encoder-11-FeedForward-Norm[0][0]
                                                                 Encoder-12-MultiHeadSelfAttention
__________________________________________________________________________________________________
Encoder-12-MultiHeadSelfAttenti (None, 150, 768)     1536        Encoder-12-MultiHeadSelfAttention
__________________________________________________________________________________________________
Encoder-12-FeedForward (FeedFor (None, 150, 768)     4722432     Encoder-12-MultiHeadSelfAttention
__________________________________________________________________________________________________
Encoder-12-FeedForward-Dropout  (None, 150, 768)     0           Encoder-12-FeedForward[0][0]
__________________________________________________________________________________________________
Encoder-12-FeedForward-Add (Add (None, 150, 768)     0           Encoder-12-MultiHeadSelfAttention
                                                                 Encoder-12-FeedForward-Dropout[0]
__________________________________________________________________________________________________
Encoder-12-FeedForward-Norm (La (None, 150, 768)     1536        Encoder-12-FeedForward-Add[0][0]
__________________________________________________________________________________________________
bidirectional_1 (Bidirectional) (None, 150, 256)     918528      Encoder-12-FeedForward-Norm[0][0]
__________________________________________________________________________________________________
time_distributed_1 (TimeDistrib (None, 150, 33)      8481        bidirectional_1[0][0]
__________________________________________________________________________________________________
dropout_1 (Dropout)             (None, 150, 33)      0           time_distributed_1[0][0]
__________________________________________________________________________________________________
crf_1 (CRF)                     (None, 150, 33)      2277        dropout_1[0][0]
==================================================================================================
Total params: 102,328,326
Trainable params: 102,328,326
Non-trainable params: 0
__________________________________________________________________________________________________
WARNING:tensorflow:From /home/bureaux/miniconda3/envs/Bert-base/lib/python3.6/site-packages/keras/optimizers.py:790: The name tf.train.Optimizer is deprecated. Please use tf.compat.v1.train.Optimizer instead.
…
